…
accuracy on the fixed dataset. For the global metric function, we conduct architecture search
with supervised training. Results are averaged over 3 seeds that are not hand-picked.
A.1.1 Simulated Navigation with Proprioceptive Inputs
The local metric function is a simple 4-layer perceptron. To learn the local metric, we run
20 environment simulation in parallel, collect 50 rollouts each (1000 in total). Each rollout
has 10 timesteps. We then generate data pairs that are 1-step apart. We use a mini batch
size of 32, and a learning rate of 3 × 10-4. The rest of the Adam optimizer hyper parameters
are stock ones from pyTorch.
LocalMetric(
(embed): Linear(in_features=2, out_features=50, bias=True)
(head): Sequential(
(0): Linear(in_features=100, out_features=50, bias=True)
(1): ReLU()
(2): Linear(in_features=50, out_features=50, bias=True)
(3): ReLU()
(4): Linear(in_features=50, out_features=50, bias=True)
(5): ReLU()
(6): Linear(in_features=50, out_features=1, bias=True)
)
)
In order for the global metric function to converge on the same dataset, it needs to be wider
than the local metric function. This tangentially shows that the global metric is learning
more complex information than the local metric.
GlobalMetricDistance(
(embed): Sequential(
(0): Linear(in_features=2, out_features=200, bias=True)
(1): ReLU()
(2): Linear(in_features=200, out_features=200, bias=True)
(3): ReLU()
(4): Linear(in_features=200, out_features=200, bias=True)
(5): ReLU()
(6): Linear(in_features=200, out_features=100, bias=True)
(7): ReLU()
(8): Linear(in_features=100, out_features=2, bias=True)
)
(head): (self.head = (lambda a, b: (a - b).norm(2, dim=-1))
)
)
A.1.2 Network Architecture used in simulated navigation with image
inputs
The local metric function is a stacked five-layer convolution network. To make learning
easier, we stack the two input images channel wise, so that there is maximum flexibility for
the local metric function.
13
Under review as a conference paper at ICLR 2020
LocalMetricConvLarge(
(trunk): Sequential(
(0): Conv2d(2, 32, kernel_size=(4, 4), stride=(2, 2))
(1): BatchNorm2d(32, eps=1e-05, momentum=0.1, affine=True)
(2): ReLU()
(3): Conv2d(32, 64, kernel_size=(4, 4), stride=(2, 2))
(4): BatchNorm2d(64, eps=1e-05, momentum=0.1, affine=True)
(5): ReLU()
(6): Conv2d(64, 64, kernel_size=(4, 4), stride=(2, 2))
(7): BatchNorm2d(64, eps=1e-05, momentum=0.1, affine=True)
(8): ReLU()
(9): Conv2d(64, 32, kernel_size=(4, 4), stride=(2, 2))
(10): BatchNorm2d(32, eps=1e-05, momentum=0.1, affine=True)
(11): ReLU()
(12): View(-1, *(128,))
(13): Linear(in_features=128, out_features=128, bias=True)
(14): ReLU()
(15): Linear(in_features=128, out_features=100, bias=True)
(16): ReLU()
(17): Linear(in_features=100, out_features=1, bias=True)
)
)
We increase the capacity of the network for the global metric.
GlobalMetricConvL2_s1(
(embed): Sequential(
(0)
(1)
(2)
(3)
(4)
(5)
(6)
(7)
(8)
(9)
Conv2d(1, 128, kernel_size=(7, 7), stride=(1, 1))
BatchNorm2d(128, eps=1e-05, momentum=0.1, affine=True)
ReLU()
Conv2d(128, 256,
BatchNorm2d(256,
ReLU()
Conv2d(256, 256,
BatchNorm2d(256,
ReLU()
Conv2d(256, 256,
kernel_size=(7, 7), stride=(1, 1))
eps=1e-05, momentum=0.1, affine=True)
kernel_size=(7, 7), stride=(2, 2))
eps=1e-05, momentum=0.1, affine=True)
kernel_size=(7, 7), stride=(2, 2))
(10): BatchNorm2d(256, eps=1e-05, momentum=0.1, affine=True)
(11): ReLU()
(12): Conv2d(256, 256, kernel_size=(7, 7), stride=(2, 2))
(13): BatchNorm2d(256, eps=1e-05, momentum=0.1, affine=True)
(14): ReLU()
(15): Conv2d(256, 256, kernel_size=(2, 2), stride=(1, 1))
(16): ReLU()
(17): View(-1, *(256,))
(18): Linear(in_features=256, out_features=2, bias=True)
)
(head): (self.head = (lambda a, b: (a - b).norm(2, dim=-1))
)
)
A.1.3 Network Architecture used in Rope and StreetLearn
To obtain good performance on the vision task, we found that is it helpful to introduce the
ResNet18 architectureHe et al. (2016). We verify the learning capacity of this architecture
by running supervised learning on the StreetLearn dataset. For the local metric function, a
…
