…
WGAN-GP (Gulrajani et al., 2017) baseline SSL experiment we followed the original paper with
critic iters nc = 5, ηG = ηD = 1e-4, Adam β2=0.9 and GP weight λGP = 10.0. Architectures
are as below. We determined λCE = 0.3 to be optimal from [0.03, 0.1, 0.3, 1.0, 3.0]. As mentioned
in Section 6.2, the K+1 critic formulation is not able to fit the training set with the GP constraint,
so we fall back to the plain critic formulation where the critic hv, Φω (x)i does not interact with the
classifier hS, Φω(x)i.
Architecture:
### CIFAR-10: 32x32. G is dcgan with G_extra_layers=2.
### D is in the flavor of OpenAI Improved GAN, ALI.
G(
(main): Sequential (
(0): ConvTranspose2d(100, 256, kernel_size=(4,
(1): BatchNorm2d(256, eps=1e-05, momentum=0.1,
(2): ReLU (inplace)
(3): ConvTranspose2d(256, 128, kernel_size=(4,
(4): BatchNorm2d(128, eps=1e-05, momentum=0.1,
(5): ReLU (inplace)
4), stride=(1, 1), bias=False)
affine=True)
4), stride=(2, 2), padding=(1, 1), bias=False)
affine=True)
26
Published as a conference paper at ICLR 2018
(6): ConvTranspose2d(128, 64, kernel_size=(4, 4), stride=(2, 2), padding=(1, 1), bias=False)
(7): BatchNorm2d(64, eps=1e-05, momentum=0.1, affine=True)
(8): ReLU (inplace)
(9): Conv2d(64, 64, kernel_size=(3, 3), stride=(1, 1), padding=(1, 1), bias=False)
(10): BatchNorm2d(64, eps=1e-05, momentum=0.1, affine=True)
(11): ReLU (inplace)
(12): Conv2d(64, 64, kernel_size=(3, 3), stride=(1, 1), padding=(1, 1), bias=False)
(13): BatchNorm2d(64, eps=1e-05, momentum=0.1, affine=True)
(14): ReLU (inplace)
(15): ConvTranspose2d(64, 3, kernel_size=(4, 4), stride=(2, 2), padding=(1, 1), bias=False)
(16): Tanh ()
)
)
D(
(main): Sequential (
(0):
(1):
(2):
(3):
(5):
(6):
(8):
(9):
(10)
(12)
(13)
(15)
(16)
(18)
(19)
(20)
(22)
(23)
(24)
(26)
(27)
(28)
(30)
(31)
)
Dropout (p = 0.2)
Conv2d(3, 96, kernel_size=(3, 3), stride=(1, 1),
LeakyReLU (0.2, inplace)
Conv2d(96, 96, kernel_size=(3, 3), stride=(1, 1)
LeakyReLU (0.2, inplace)
Conv2d(96, 96, kernel_size=(3, 3), stride=(2, 2)
…
