…
negative sample we selected a scenery which differs in a single seat position and we did not allow
sceneries with empty seats only. In case the partially impossible reconstruction loss was used, the
target images for the positive and negative samples are chosen to be partially impossible as well.
A.2.1 Model details
The autoencoder model architecture details are provided in Table 4, 6 and 7. Regarding the pre-
trained models, we used the output of the following layers to retrieve the extracted features. The
notations is according to the torchvision model definitions:
15
Under review as a conference paper at ICLR 2022
VGG-11
(16): Conv2d(512, 512, kernel_size=(3, 3), stride=(1, 1), padding=(1, 1))
(17): ReLU(inplace=True)
Resnet-50
(5): Bottleneck(
(conv1): Conv2d(1024, 256, kernel_size=(1, 1), stride=(1, 1), bias=False)
(bn1): BatchNorm2d(256, eps=1e-05, momentum=0.1, affine=True, track_running_stats=True)
(conv2): Conv2d(256, 256, kernel_size=(3, 3), stride=(1, 1), padding=(1, 1), bias=False)
(bn2): BatchNorm2d(256, eps=1e-05, momentum=0.1, affine=True, track_running_stats=True)
(conv3): Conv2d(256, 1024, kernel_size=(1, 1), stride=(1, 1), bias=False)
(bn3): BatchNorm2d(1024, eps=1e-05, momentum=0.1, affine=True, track_running_stats=True)
(relu): ReLU(inplace=True)
)
Densenet-121
(denselayer24): _DenseLayer(
(norm1): BatchNorm2d(992, eps=1e-05, momentum=0.1, affine=True, track_running_stats=True)
(relu1): ReLU(inplace=True)
(conv1): Conv2d(992, 128, kernel_size=(1, 1), stride=(1, 1), bias=False)
(norm2): BatchNorm2d(128, eps=1e-05, momentum=0.1, affine=True, track_running_stats=True)
(relu2): ReLU(inplace=True)
(conv2): Conv2d(128, 32, kernel_size=(3, 3), stride=(1, 1), padding=(1, 1), bias=False)
)
Table 4: Model architecture for AE, VAE and β-VAE on MPI3D
Encoder	Decoder
Input: 3 x 64 x 64	Input: 10
Conv, 4x4, 32, padding 1, stride 2 ReLU	FC, 256, bias True ReLU
Conv, 4x4, 32, padding 1, stride 2 ReLU	FC, 1024, bias True ReLU
Conv, 4x4, 64, padding 1, stride 2 ReLU	ConvTranspose, 4x4, 64, padding 1, stride 2 ReLU
Conv, 4x4, 64, padding 1, stride 2 ReLU	ConvTranspose, 4x4, 32, padding 1, stride 2 ReLU
…
