…
0	25	50	75	100	125	150	175	200
Epoch
9 8 7 6 5 4
7 7 7 7 7 7
3BJn8vo≡^viπo

50
5
1
h
∞ ∞
1
5
7
50
1
5
2
均
5
7
5
- 2
-
I τ
XOunmvOIXVdIO
5
2
5
1
Figure 9: In each sub-figure, green line and blue line are the accuracies of the ResNet model with or
without the BN layer, respectively.
A.4 Detailed Structure of RMNet
We print out the detailed network structure of RMNet 26 X 3_32 in Table 4. From Table 4, the most
components in RMNet are ‘Conv’ and ‘ReLU’, making it very efficient on inference.
14
Under review as a conference paper at ICLR 2022
Table 4: The detailed network structure of RMNet 26 X 3.32
Sequential(
(0): Conv2d(3, 64, kemeLsize=(3, 3), Stride=(1, 1),padding=(1, 1))
(1): ReLU(inplace=True)
(2): Conv2d(64, 192,kerneLsize=(1, 1), Stride=(1,1))
(3): ReLU(inplace=True)
(4): Conv2d(192, 192, kerneLsize=(3, 3), Stride=(1,1),padding=(1, 1), groups=6)
(5): ReLU(inplace=True)
俗)：Conv2d(192, 64,kerneLsize=(1,1), stride=(1, 1))
(7): ReLU(inplace=True)
(8): Conv2d(64, 192,kernel-size=(1, 1), stride=(1, 1))
(9): ReLU(inplace=True)
(i0): Conv2d(192, 192, kerneLSize=(3, 3), stride=(1, 1), padding=(1, 1), groups=6)
(11): ReLU(inplace=True)
(12): Conv2d(192, 64, kerneLsize=(1, 1), stride=(1, 1))
(13): ReLU(inplace=True)
(14): Conv2d(64, 320, kerneLSize=(1, 1), stride=(1, 1))
(15): ReLU(inplace=True)
(16): Conv2d(320, 320, kerneLSize=(3, 3), stride=(2, 2), padding=(1, 1), groups=5)
(17): ReLU(inplace=True)
(18): Conv2d(320, 128, kerneLSize=(1,1), stride=(1, 1))
(19): ReLU(inplace=True)
(20): Conv2d(128, 384, kerneLSize=(1,1), stride=(1, 1))
(21): ReLU(inplace=True)
(22): Conv2d(384, 384, kerneLSize=(3, 3), stride=(1, 1), padding=(1, 1), groups=6)
(23): ReLU(inplace=True)
(24): Conv2d(384, 128, kerneLSize=(1,1), stride=(1, 1))
(25): ReLU(inplace=True)
(26): Conv2d(128, 640, kerneLSize=(1,1), stride=(1, 1))
(27): ReLU(inplace=True)
(28): Conv2d(640, 640, kerneLSize=(3, 3), stride=(2, 2), padding=(1, 1), groups=5)
(29): ReLU(inplace=True)
(30): Conv2d(640, 256, kerneLSize=(1,1), stride=(1, 1))
(31): ReLU(inplace=True)
(32): Conv2d(256, 768, kerneLsize=(1, 1), stride=(1, 1))
(33): ReLU(inplace=True)
(34): Conv2d(768, 768, kerneLSize=(3, 3), stride=(1, 1), padding=(1, 1), groups=6)
(35): ReLU(inplace=True)
(36): Conv2d(768, 256, kerneLsize=(1, 1), stride=(1, 1))
(37): ReLU(inplace=True)
(38): Conv2d(256, 1280, kerneLsize=(1, 1), stride=(1, 1))
(39): ReLU(inplace=True)
(40): Conv2d(1280, 1280, kerneLsize=(3, 3), stride=(2, 2), padding=(1, 1), groups=5)
(41): ReLU(inplace=True)
(42): Conv2d(1280, 512, kerneLsize=(1, 1), stride=(1, 1))
(43): ReLU(inplace=True)
(44): Conv2d(512, 1536, kerneLsize=(1, 1), stride=(1, 1))
(45): ReLU(inplace=True)
(46): Conv2d(1536, 1536, kerneLsize=(3, 3), stride=(1, 1), padding=(1, 1), groups=6)
(47): ReLU(inplace=True)
(48): Conv2d(1536, 512, kerneLsize=(1, 1), stride=(1, 1))
(49): ReLU(inplace=True)
(50): AdaPtiveAvgPool2d(output_size=1)
(51): Flatten(start-dim=1, end_dim=-1)
(52): Linear(in_features=512, outfeatures=10, bias=True))
15