…
correspond to CIFAR-10 classes.
Figure 13: CIFAR-10 graph colored with
true class labels.
16
Published as a conference paper at ICLR 2020
S，2i4 XT-
ðq p∙",
g g 223
a r，1 ɔ
2 C q ∕Q
3 0 2 0/
3 2 070
J g 5 53
£ 2 a 夕 B
258q∕7>k2/
o /o √ ISb "
夕+Z335∕5OV
eMq32∕τ∣ 3 7
。1，£二〃75 δ S
Figure 14: MNIST samples (left: WGAN, right: WGAN-GP)
.⅜t AiA*n na
Figure 16: CIFAR-10 samples (left: WGAN, right: WGAN-GP)
Figure 15: FashionMNIST samples (left: WGAN, right: WGAN-GP)
Figure 17: CelebA samples (left: WGAN, right: WGAN-GP)
17
Published as a conference paper at ICLR 2020
MNIST WGAN
COnvGenerator(
(latent_to_features): Sequential(
(0): Linear(in_features=100, out_features=512, bias=True)
(1): ReLU()
)
(features_to_image): Sequential(
(0): ConvTranspose2d(128, 64, kernel_size=(4, 4),
stride=(2, 2), padding=(1, 1))
(1): ReLU()
(2): BatchNorm2d(64, eps=1e-05, momentum=0.1, affine=True)
(3): ConvTranspose2d(64, 32, kernel_size=(4, 4),
stride=(2, 2), padding=(1, 1))
(4): ReLU()
(5): BatchNorm2d(32, eps=1e-05, momentum=0.1, affine=True)
(6): ConvTranspose2d(32, 16, kernel_size=(4, 4),
stride=(2, 2), padding=(1, 1))
(7): ReLU()
(8): BatchNorm2d(16, eps=1e-05, momentum=0.1, affine=True)
(9): ConvTranspose2d(16, 1, kernel_size=(4, 4),
stride=(2, 2), padding=(1, 1))
(10): Sigmoid()
)
)
ConvDiscriminator(
(image_to_features): Sequential(
(0): Conv2d(1, 16, kernel_size=(4, 4), stride=(2, 2), padding=(1, 1))
(1): LeakyReLU(negative_slope=0.2)
(2): Conv2d(16, 32, kernel_size=(4, 4), stride=(2, 2), padding=(1, 1))
(3): LeakyReLU(negative_slope=0.2)
(4): Conv2d(32, 64, kernel_size=(4, 4), stride=(2, 2), padding=(1, 1))
(5): LeakyReLU(negative_slope=0.2)
(6): Conv2d(64, 128, kernel_size=(4, 4), stride=(2, 2), padding=(1, 1))
(7): Sigmoid()
)
(features to_prob): Sequential(
(0): Linear(in_features=512, out_features=1, bias=True)
(1): Sigmoid()
)
)
18
Published as a conference paper at ICLR 2020
MNIST WGAN-GP, FMNIST (WGAN, WGAN-GP)
MNISTGenerator(
(block1): Sequential(
(0): ConvTranspose2d(256, 128, kernel_size=(5, 5), Stride=(1, 1))
(1): ReLU(inplace)
)
(block2): Sequential(
(0): ConvTranspose2d(128, 64, kernel_size=(5, 5), stride=(1, 1))
(1): ReLU(inplace)
)
(deconv_out): ConvTranspose2d(64, 1, kernel_size=(8, 8), stride=(2, 2))
(preprocess): Sequential(
(0): Linear(in_features=128, out_features=4096, bias=True)
(1): ReLU(inplace)
)
(sigmoid): Sigmoid()
)
MNISTDiscriminator(
(main): Sequential(
(0): Conv2d(1, 64, kernel_size=(5, 5), stride=(2, 2), padding=(2, 2))
(1): ReLU(inplace)
(2): Conv2d(64, 128, kernel_size=(5, 5), stride=(2, 2), padding=(2, 2))
(3): ReLU(inplace)
(4): Conv2d(128, 256, kernel_size=(5, 5), stride=(2, 2), padding=(2, 2))
(5): ReLU(inplace)
)
(output): Linear(in_features=4096, out_features=1, bias=True)
)
CIFAR-10 (WGAN, WGAN-GP)
CIFARGenerator(
(preprocess): Sequential(
(0): Linear(in_features=128, out_features=4096, bias=True)
(1): BatchNorm1d(4096, eps=1e-05, momentum=0.1, affine=True)
(2): ReLU(inplace)
)
(block1): Sequential(
(0): ConvTranspose2d(256, 128, kernel_size=(2, 2), stride=(2, 2))
(1): BatchNorm2d(128, eps=1e-05, momentum=0.1, affine=True)
(2): ReLU(inplace)
)
(block2): Sequential(
(0): ConvTranspose2d(128, 64, kernel_size=(2, 2), stride=(2, 2))
(1): BatchNorm2d(64, eps=1e-05, momentum=0.1, affine=True)
(2): ReLU(inplace)
)
(deconv_out): ConvTranspose2d(64, 3, kernel_size=(2, 2), stride=(2, 2))
(tanh): Tanh()
)
CIFARDiscriminator(
(main): Sequential(
(0): Conv2d(3, 64, kernel_size=(3, 3), stride=(2, 2), padding=(1, 1))
(1): LeakyReLU(negative_slope=0.01)
(2): Conv2d(64, 128, kernel_size=(3, 3), stride=(2, 2), padding=(1, 1))
(3): LeakyReLU(negative_slope=0.01)
(4): Conv2d(128, 256, kernel_size=(3, 3), stride=(2, 2), padding=(1, 1))
(5): LeakyReLU(negative_slope=0.01)
)
(linear): Linear(in_features=4096, out_features=1, bias=True)
)
19
Published as a conference paper at ICLR 2020
CelebA (WGAN, WGAN-GP)
CelebaGenerator(
(preprocess): Sequential(
(0): Linear(in_features=128, out_features=8192, bias=True)
(1): BatchNorm1d(8192, eps=1e-05, momentum=0.1, affine=True)
(2): ReLU(inplace)
)
(block1): Sequential(
(0): ConvTranspose2d(512, 256, kernel_size=(5, 5), stride=(2, 2),
Padding=(2, 2), Output_Padding=(1, 1), bias=False)
(1): BatchNOrm2d(256, eps=1e-05, momentum=0.1, affine=True)
(2): ReLU(inplace)
)
(block2): Sequential(
(0): ConvTranSpoSe2d(256, 128, kernel_Size=(5, 5), stride=(2, 2),
padding=(2, 2), output_padding=(1, 1), bias=False)
(1): BatchNorm2d(128, eps=1e-05, momentum=0.1, affine=True)
(2): ReLU(inplace)
)
(block3): Sequential(
(0): ConvTranSpoSe2d(128, 64, kernel_Size=(5, 5), stride=(2, 2),
padding=(2, 2), output_padding=(1, 1), bias=False)
(1): BatchNorm2d(64, eps=1e-05, momentum=0.1, affine=True)
(2): ReLU(inplace)
)
(deconv_out): ConvTranSpoSe2d(64, 3, kernel_Size=(5, 5), stride=(2, 2),
padding=(2, 2), output_padding=(1, 1))
(tanh): Tanh()
)
CelebaDiscriminator(
(main): Sequential(
(0): Conv2d(3, 64, kernel_Size=(5, 5), stride=(2, 2), padding=(2, 2))
(1): LeakyReLU(negative_Slope=0.01)
(2): Conv2d(64, 128, kernel_Size=(5, 5), stride=(2, 2), padding=(2, 2))
(3): LeakyReLU(negative_Slope=0.01)
(4): Conv2d(128, 256, kernel_Size=(5, 5), stride=(2, 2), padding=(2, 2))
(5): LeakyReLU(negative_Slope=0.01)
(6): Conv2d(256, 512, kernel_Size=(5, 5), stride=(2, 2), padding=(2, 2))
(7): LeakyReLU(negative_Slope=0.01)
(8): Conv2d(512, 1, kernel_Size=(4, 4), stride=(1, 1))
)
)
20