…
Conv, 32, 7 X 7 Conv, 128, 5 X 5 Linear, 10 =115658 params		-Conv2d,128, 7 X 7 Conv2d, 256, 5 X 5 Conv2d, 256, 5 X 5 Linear, 512 Linear, 10 =5759498 params		Conv2d, 64, stride 2, 7 X 7 Conv2d, 128, 5 X 5 2 X Linear, Zhid ConvT, 128, 5 X 5 ConvT, 64, stride 2, 5 X 5 ConvT, 1, stride 2, 5 X 5 =1641665 params
Table 3: Network Architectures for MNIST and CIFAR-10/CIFAR-100 datasets (Section 4).
14
Published as a conference paper at ICLR 2019
H PyTorch architectures
H.1 VAE Priors
•	VAE model for 7x7 kernels (zdim = 2, 300 epochs, Adam optimizer with linear learning rate
decay from 1e-3 to 0.):
VAE(
(encoder): Encoder7x7(
(features): Sequential(
(0): Conv2d(1, 32, kernel_size=(3, 3), stride=(1, 1))
(1): ELU(alpha=1.0)
(2): Conv2d(32, 64, kernel_size=(3, 3), stride=(1, 1))
(3): ELU(alpha=1.0)
(4): Conv2d(64, 64, kernel_size=(3, 3), stride=(1, 1))
(5): ELU(alpha=1.0))
(fc_mu): Conv2d(64, 2, kernel_size=(1, 1), stride=(1, 1))
(fc_var): Conv2d(64, 2, kernel_size=(1, 1), stride=(1, 1)))
(decoder): Decoder7x7(
(decoder): Sequential(
(0): ConvTranspose2d(2, 64,
kernel_size=(3, 3), stride=(1, 1))
(1): ELU(alpha=1.0)
(2): ConvTranspose2d(64, 64,
kernel_size=(3, 3), stride=(1, 1))
(3): ELU(alpha=1.0)
(4): ConvTranspose2d(64, 32,
kernel_size=(3, 3), stride=(1, 1))
(5): ELU(alpha=1.0))
(fc_mu): Conv2d(32, 1, kernel_size=(1, 1), stride=(1, 1))
(fc_var): Conv2d(32, 1, kernel_size=(1, 1), stride=(1, 1))))
•	VAE model for 5x5 kernels (zdim = 4, 300 epochs, Adam optimizer with linear learning rate
decay from 1e-3 to 0.):
VAE(
(encoder): Encoder5x5(
(features): Sequential(
(0): Conv2d(1, 64, kernel_size=(3, 3),
stride=(1, 1), padding=(1, 1))
(1): ELU(alpha=1.0)
(2): Conv2d(64, 64, kernel_size=(3, 3),
stride=(1, 1), padding=(1, 1))
(3): ELU(alpha=1.0)
(4): Conv2d(64, 128, kernel_size=(3, 3),
stride=(1, 1))
(5): ELU(alpha=1.0)
(6): Conv2d(128, 128, kernel_size=(3, 3),
stride=(1, 1))
(7): ELU(alpha=1.0))
(fc_mu): Conv2d(128, 4, kernel_size=(1, 1), stride=(1, 1))
(fc_sigma): Conv2d(128, 4, kernel_size=(1, 1), stride=(1, 1)))
(decoder): Decoder5x5(
(activation): ELU(alpha=1.0)
(decoder): Sequential(
(0): Conv2d(4, 128, kernel_size=(1, 1), stride=(1, 1))
(1): ELU(alpha=1.0)
(2): ConvTranspose2d(128, 128,
kernel_size=(3, 3), stride=(1, 1))
(3): ELU(alpha=1.0)
(4): ConvTranspose2d(128, 128,
kernel_size=(3, 3), stride=(1, 1))
(5): ELU(alpha=1.0)
(6): Conv2d(128, 64, kernel_size=(1, 1), stride=(1, 1))
(7): ELU(alpha=1.0))
(fc_mu): Sequential(
(0): Conv2d(64, 1, kernel_size=(1, 1), stride=(1, 1)))
(fc_var): Sequential(
(0): Conv2d(64, 1, kernel_size=(1, 1), stride=(1, 1))
)))
15
Published as a conference paper at ICLR 2019
H.2 NOTMNIST-MNIST
•	Source models trained on notMNIST (l2=1e-3, 100 epochs, Adam optimizer with linear learn-
ing rate decay from 1e-3 to 0.) look as follows:
FConvMNIST(
(features): Sequential(
(conv1): Conv2d(1, 256, kernel_size=(7, 7), stride=(1, 1))
(relu1): LeakyReLU(negative_slope=0.01)
(mp1): MaxPool2d(kernel_size=2,
stride=2, padding=0, dilation=1, ceil_mode=False)
(conv2): Conv2d(256, 512, kernel_size=(5, 5), stride=(1, 1))
(relu2): LeakyReLU(negative_slope=0.01)
(mp2): MaxPool2d(kernel_size=2,
stride=2, padding=0, dilation=1, ceil_mode=False)
(flatten): Flatten())
(classifier): Linear(in_features=4608,
out_features=10, bias=True))
•	The final model (deterministic) trained on MNIST looks as follows (Adam optimizer with linear
learning rate decay from 1e-3 to 0.):
FConvMNIST(
(features): Sequential(
(conv1): Conv2d(1, 32, kernel_size=(7, 7), stride=(1, 1))
(relu1): LeakyReLU(negative_slope=0.01)
(mp1): MaxPool2d(kernel_size=2, stride=2,
padding=0, dilation=1, ceil_mode=False)
(conv2): Conv2d(32, 128, kernel_size=(5, 5), stride=(1, 1))
(relu2): LeakyReLU(negative_slope=0.01)
(mp2): MaxPool2d(kernel_size=2,
stride=2, padding=0, dilation=1, ceil_mode=False)
(flatten): Flatten())
(classifier): Linear(in_features=1152,
out_features=10, bias=True))
•	The final model (bayesian) trained on MNIST looks as follows (Adam optimizer with linear
learning rate decay from 1e-3 to 0.):
FConvMNIST(
(features): Sequential(
(conv1): BayesConv2d(
(mean): Conv2d(1, 32, kernel_size=(7, 7), stride=(1, 1))
(var): LogScaleConv2d(1, 32,
kernel_size=(7, 7), stride=(1, 1), bias=False))
(relu1): LeakyReLU(negative_slope=0.01)
(mp1): MaxPool2d(kernel_size=2, stride=2,
padding=0, dilation=1, ceil_mode=False)
(conv2): BayesConv2d(
(mean): Conv2d(32, 128, kernel_size=(5, 5), stride=(1, 1))
(var): LogScaleConv2d(32, 128,
kernel_size=(5, 5), stride=(1, 1), bias=False))
(relu2): LeakyReLU(negative_slope=0.01)
(mp2): MaxPool2d(kernel_size=2,
stride=2, padding=0, dilation=1, ceil_mode=False)
(flatten): Flatten())
(classifier): Linear(in_features=1152,
out_features=10, bias=True))
H.3 CIFAR
•	The source model for CIFAR looks as follows (l2=1e-4, 300 epochs, Adam, Linear learning
rate decay from 1e-3 to 0.):
CIFARNet(
(features): Sequential(
(conv1): Conv2d(3, 128, kernel_size=(7, 7), stride=(1, 1))
(bn1): BatchNorm2d(128,
eps=1e-05, momentum=0.1,
affine=True, track_running_stats=True)
(relu1): LeakyReLU(negative_slope=0.01)
16
Published as a conference paper at ICLR 2019
(maxpool): MaxPool2d(
kernel_size=2, stride=2,
padding=0, dilation=1, ceil_mode=False)
(conv2): Conv2d(128, 256, kernel_size=(5, 5), stride=(1, 1))
(bn2): BatchNorm2d(
256, eps=1e-05, momentum=0.1,
affine=True, track_running_stats=True)
(relu2): LeakyReLU(negative_slope=0.01)
(conv3): Conv2d(256, 256, kernel_size=(5, 5), stride=(1, 1))
(bn3): BatchNorm2d(256,
eps=1e-05, momentum=0.1,
affine=True, track_running_stats=True)
(relu3): LeakyReLU(negative_slope=0.01)
(conv4): Conv2d(256, 512, kernel_size=(5, 5), stride=(1, 1))
(bn4): BatchNorm2d(512,
eps=1e-05, momentum=0.1,
affine=True, track_running_stats=True)
(relu4): LeakyReLU(negative_slope=0.01)
(flatten): Flatten())
(classifier): Sequential(
(fc1): Linear(in_features=512, out_features=512, bias=True)
(bn1): BatchNorm1d(512,
eps=1e-05, momentum=0.1,
affine=True, track_running_stats=True)
(relu1): LeakyReLU(negative_slope=0.01)
(linear): Linear(in_features=512, out_features=100, bias=True)
))
•	The final deterministic model (for CIFAR10) looks as follows:
CIFARNetNew(
(features): Sequential(
(conv1): Conv2d(3, 128, kernel_size=(7, 7), stride=(1, 1))
(relu1): LeakyReLU(negative_slope=0.01)
(maxpool): MaxPool2d(kernel_size=2, stride=2,
padding=0, dilation=1, ceil_mode=False)
(conv2): Conv2d(128, 256, kernel_size=(5, 5), stride=(1, 1))
(relu2): LeakyReLU(negative_slope=0.01)
(conv3): Conv2d(256, 256, kernel_size=(5, 5), stride=(1, 1))
(relu3): LeakyReLU(negative_slope=0.01)
(flatten): Flatten())
(classifier): Sequential(
(fc1): Linear(in_features=6400, out_features=512, bias=True)
(relu1): LeakyReLU(negative_slope=0.01)
(linear): Linear(in_features=512, out_features=10, bias=True)
))
•	The final Bayesian model (for CIFAR10) looks as follows:
CIFARNetNew(
(features): Sequential(
(conv1): BayesConv2d(
(mean): Conv2d(3, 128, kernel_size=(7, 7), stride=(1, 1))
(var): LogScaleConv2d(3, 128,
kernel_size=(7, 7), stride=(1, 1), bias=False))
(relu1): LeakyReLU(negative_slope=0.01)
(maxpool): MaxPool2d(kernel_size=2, stride=2, padding=0,
dilation=1, ceil_mode=False)
(conv2): BayesConv2d(
(mean): Conv2d(128, 256, kernel_size=(5, 5), stride=(1, 1))
(var): LogScaleConv2d(128, 256, kernel_size=(5, 5),
stride=(1, 1), bias=False))
(relu2): LeakyReLU(negative_slope=0.01)
(conv3): BayesConv2d(
(mean): Conv2d(256, 256, kernel_size=(5, 5), stride=(1, 1))
(var): LogScaleConv2d(256, 256,
kernel_size=(5, 5), stride=(1, 1), bias=False))
(relu3): LeakyReLU(negative_slope=0.01)
(flatten): Flatten())
(classifier): Sequential(
(fc1): Linear(in_features=6400, out_features=512, bias=True)
(relu1): LeakyReLU(negative_slope=0.01)
(linear): Linear(in_features=512, out_features=10, bias=True)))
17