…
the following columns present the result of damaging the hidden state before each up-convolution.
The second and third columns are the same, since both represent the equivalent to damaging the
state before the first duplication. Note: both these figures show sample averages for clarity.
(b) Deep convolutional decoder baseline
CelebA baseline To compare against resilience to damage in the decoding/doubling process (see
Fig. 11), we trained a deep convolutional VAE on the same dataset, fitting the same distribution.
This is the specification of the model as a PyTorch module:
VAE(
(encoder): Sequential(
(0): Conv2d(3, 32, kernel_size=(5, 5), stride=(1, 1), padding=(2, 2))
(1): ELU(alpha=1.0)
(2): Conv2d(32, 64, kernel_size=(5, 5), stride=(2, 2), padding=(2, 2))
(3): ELU(alpha=1.0)
(4): Conv2d(64, 128, kernel_size=(5, 5), stride=(2, 2), padding=(2, 2))
(5): ELU(alpha=1.0)
(6): Conv2d(128, 256, kernel_size=(5, 5), stride=(2, 2), padding=(2, 2))
(7): ELU(alpha=1.0)
(8): Conv2d(256, 512, kernel_size=(5, 5), stride=(2, 2), padding=(2, 2))
(9): ELU(alpha=1.0)
(10): Flatten(start_dim=1, end_dim=-1)
(11): Linear(in_features=8192, out_features=512, bias=True)
)
(decoder_linear): Sequential(
(0): Linear(in_features=256, out_features=4096, bias=True)
(1): ELU(alpha=1.0)
)
(decoder): Sequential(
(0): ConvTranspose2d(1024, 512, kernel_size=(5, 5), stride=(2, 2),
padding=(2, 2), output_padding=(1, 1))
(1): ELU(alpha=1.0)
(2): ConvTranspose2d(512, 256, kernel_size=(5, 5), stride=(2, 2),
padding=(2, 2), output_padding=(1, 1))
12
Published as a conference paper at ICLR 2022
(3): ELU(alpha=1.0)
(4): ConvTranspose2d(256, 128, kernel_size=(5, 5), stride=(2, 2),
padding=(2, 2), output_padding=(1, 1))
(5): ELU(alpha=1.0)
(6): ConvTranspose2d(128, 64, kernel_size=(5, 5), stride=(2, 2),
padding=(2, 2), output_padding=(1, 1))
(7): ELU(alpha=1.0)
(8): ConvTranspose2d(64, 32, kernel_size=(5, 5), stride=(2, 2),
padding=(2, 2), output_padding=(1, 1))
(9): ELU(alpha=1.0)
(10): ConvTranspose2d(32, 10, kernel_size=(5, 5), stride=(1, 1),
padding=(2, 2))
)
)
During training, we used the ELBO loss with β = 100 since we faced similar issues when trying to
get sensible unconditioned samples. It is worth remarking that this baseline doubles the image via
up-convolutions the same number of times as the VNCA used for this experiment.
A.2 Non-doubling VNCA variant
∣Z∣ × 1 × 1
∖Z∖×H×W
∖Z∖×H×W
∖Z∖×H×W
…
generative model, we are impressed with its ability to generate such diverse outputs from a single
common vector encoding, using a simple self-organising process.
Figure 13: Noto Emoji results. Left: Test set reconstructions. Right: Unconditional samples from
the prior. The VNCA achieves 3.09 bits per dimension on the test set evaluated with 128 importance
weighted samples.
2https://github.com/googlefonts/noto-emoji
15
Published as a conference paper at ICLR 2022
A.5 Model specification
The detailed model specification can be seen below in the standard PyTorch Module format.
VNCA(
(encoder): Sequential(
(0): Conv2d(3, 32, kernel_size=(5, 5), stride=(1, 1), padding=(2, 2))
(1): ELU(alpha=1.0)
(2): Conv2d(32, 64, kernel_size=(5, 5), stride=(2, 2), padding=(2, 2))
(3): ELU(alpha=1.0)
(4): Conv2d(64, 128, kernel_size=(5, 5), stride=(2, 2), padding=(2, 2))
(5): ELU(alpha=1.0)
(6): Conv2d(128, 256, kernel_size=(5, 5), stride=(2, 2), padding=(2, 2))
(7): ELU(alpha=1.0)
(8): Conv2d(256, 512, kernel_size=(5, 5), stride=(2, 2), padding=(2, 2))
(9): ELU(alpha=1.0)
(10): Flatten(start_dim=1, end_dim=-1)
(11): Linear(in_features=8192, out_features=512, bias=True)
)
(nca): DataParallel(
(module): NCA(
(update_net): Sequential(
(0): Conv2d(256, 256, kernel_size=(3, 3),
(1): Residual(
(delegate): Sequential(
(0): Conv2d(256, 256, kernel_size=(1,
(1): ELU(alpha=1.0)
(2): Conv2d(256, 256, kernel_size=(1,
)
)
(2): Residual(
(delegate): Sequential(
(0): Conv2d(256, 256, kernel_size=(1,
(1): ELU(alpha=1.0)
(2): Conv2d(256, 256, kernel_size=(1,
)
)
(3): Residual(
(delegate): Sequential(
(0): Conv2d(256, 256, kernel_size=(1,
(1): ELU(alpha=1.0)
(2): Conv2d(256, 256, kernel_size=(1,
)
)
(4): Residual(
(delegate): Sequential(
(0): Conv2d(256, 256, kernel_size=(1,
(1): ELU(alpha=1.0)
(2): Conv2d(256, 256, kernel_size=(1,
)
)
(5): Conv2d(256, 256, kernel_size=(1, 1),
)
)
)
)
stride=(1, 1),
1), stride=(1,
1), stride=(1,
1), stride=(1,
1), stride=(1,
1), stride=(1,
1), stride=(1,
1), stride=(1,
1), stride=(1,
stride=(1, 1))
padding=(1, 1))
1))
1))
1))
1))
1))
1))
1))
1))
A.6 Deep Convolutional Baselines
MNIST baseline In Fig. 5 we compared our VNCA to a deep convolutional VAE baseline. Here
is the specification of that model using PyTorch’s module format:
VAE(
(encoder): Sequential(
16
Published as a conference paper at ICLR 2022
(0): Conv2d(1, 32, kernel_size=(5, 5), stride=(1, 1), padding=(4, 4))
(1): ELU(alpha=1.0)
(2): Conv2d(32, 64, kernel_size=(5, 5), stride=(2, 2), padding=(2, 2))
(3): ELU(alpha=1.0)
(4): Conv2d(64, 128, kernel_size=(5, 5), stride=(2, 2), padding=(2, 2))
(5): ELU(alpha=1.0)
(6): Conv2d(128, 256, kernel_size=(5, 5), stride=(2, 2), padding=(2, 2))
(7): ELU(alpha=1.0)
(8): Conv2d(256, 512, kernel_size=(5, 5), stride=(2, 2), padding=(2, 2))
(9): ELU(alpha=1.0)
(10): Flatten(start_dim=1, end_dim=-1)
(11): Linear(in_features=2048, out_features=256, bias=True)
)
(decoder_linear): Sequential(
(0): Linear(in_features=128, out_features=2048, bias=True)
)
(decoder): Sequential(
(0): ConvTranspose2d(512, 256, kernel_size=(5, 5), stride=(2, 2),
padding=(2, 2), output_padding=(1, 1))
(1): ELU(alpha=1.0)
(2): ConvTranspose2d(256, 128, kernel_size=(5, 5), stride=(2, 2),
padding=(2, 2), output_padding=(1, 1))
(3): ELU(alpha=1.0)
(4): ConvTranspose2d(128, 64, kernel_size=(5, 5), stride=(2, 2),
padding=(2, 2), output_padding=(1, 1))
(5): ELU(alpha=1.0)
(6): ConvTranspose2d(64, 32, kernel_size=(5, 5), stride=(2, 2),
padding=(2, 2), output_padding=(1, 1))
(7): ELU(alpha=1.0)
(8): ConvTranspose2d(32, 1, kernel_size=(5, 5), stride=(1, 1), padding=(4, 4))
)
)
We believe this is a fair baseline, since it contains 9.5M trainable parameters, in comparison to the
VNCA used for this experiment, which contains around 5M.
A.7 CelebA unconditional samples
A.8 Additional experiments
We tried several variations of the VNCA that, perhaps surprisingly, were not better. We report them
here so that future research can take them into account.
…
