…
Figure 19: CIFAR-5m Samples. Random samples from each class (by row).
24
Published as a conference paper at ICLR 2021


-S*

一. 一口 蒯■"嚓≡≡04
is*B
25
Published as a conference paper at ICLR 2021
Figure 21: ImageNet-DogBird Samples. Random samples from each class. Annotated by their
original ImageNet class for reference.
26
Published as a conference paper at ICLR 2021
F D-CONV, D-FC Architecture Details
For convenience, we provide PyTorch specifications for the D-CONV and D-FC architectures from
Neyshabur (2020) which we use in this work.
D-CONV. This model has 6563498 parameters.
Network(
(features): Sequential(
(0): Conv2d(3, 32, kernel_size=(3, 3), stride=(1, 1), padding=(1, 1)
, bias=False)
(1): BatchNorm2d(32, eps=1e-05, momentum=0.1, affine=True)
(2): ReLU(inplace=True)
(3): Conv2d(32, 64, kernel_size=(3, 3), stride=(2, 2), padding=(1, 1)
, bias=False)
(4): BatchNorm2d(64, eps=1e-05, momentum=0.1, affine=True)
(5): ReLU(inplace=True)
(6): Conv2d(64, 64, kernel_size=(3, 3), stride=(1, 1), padding=(1, 1)
, bias=False)
(7): BatchNorm2d(64, eps=1e-05, momentum=0.1, affine=True)
(8): ReLU(inplace=True)
(9): Conv2d(64, 128, kernel_size=(3, 3), stride=(2, 2), padding=(1, 1)
, bias=False)
(10): BatchNorm2d(128, eps=1e-05, momentum=0.1, affine=True)
(11): ReLU(inplace=True)
(12): Conv2d(128, 128, kernel_size=(3, 3), stride=(1, 1), padding=(1, 1)
, bias=False)
(13): BatchNorm2d(128, eps=1e-05, momentum=0.1, affine=True)
(14): ReLU(inplace=True)
(15): Conv2d(128, 256, kernel_size=(3, 3), stride=(2, 2), padding=(1, 1)
, bias=False)
(16): BatchNorm2d(256, eps=1e-05, momentum=0.1, affine=True)
(17): ReLU(inplace=True)
(18): Conv2d(256, 256, kernel_size=(3, 3), stride=(1, 1), padding=(1, 1)
, bias=False)
(19): BatchNorm2d(256, eps=1e-05, momentum=0.1, affine=True)
(20): ReLU(inplace=True)
(21): Conv2d(256, 512, kernel_size=(3, 3), stride=(2, 2), padding=(1, 1)
, bias=False)
(22): BatchNorm2d(512, eps=1e-05, momentum=0.1, affine=True)
(23): ReLU(inplace=True)
)
(classifier): Sequential(
(0): Linear(in_features=2048, out_features=2048
, bias=False)
(1): BatchNorm1d(2048, eps=1e-05, momentum=0.1, affine=True)
(2): ReLU(inplace=True)
(3): Dropout(p=0.5, inplace=False)
(4): Linear(in_features=2048, out_features=10, bias=True)
)
)
D-FC. This model has 1170419722 parameters.
Network(
(features): Sequential(
(0): Linear(in_features=3072, out_features=32768, bias=False)
(1): BatchNorm1d(32768, eps=1e-05, momentum=0.1, affine=True
(2): ReLU(inplace=True)
(3): Linear(in_features=32768, out_features=16384, bias=False)
27
Published as a conference paper at ICLR 2021
(4): BatchNorm1d(16384, eps=1e-05, momentum=0.1, affine=True)
(5): ReLU(inplace=True)
(6): Linear(in_features=16384, out_features=16384, bias=False)
(7): BatchNorm1d(16384, eps=1e-05, momentum=0.1, affine=True)
(8): ReLU(inplace=True)
(9): Linear(in_features=16384, out_features=8192, bias=False)
(10): BatchNorm1d(8192, eps=1e-05, momentum=0.1, affine=True)
(11): ReLU(inplace=True)
(12): Linear(in_features=8192, out_features=8192, bias=False)
(13): BatchNorm1d(8192, eps=1e-05, momentum=0.1, affine=True)
(14): ReLU(inplace=True)
(15): Linear(in_features=8192, out_features=4096, bias=False)
(16): BatchNorm1d(4096, eps=1e-05, momentum=0.1, affine=True)
(17): ReLU(inplace=True)
(18): Linear(in_features=4096, out_features=4096, bias=False)
(19): BatchNorm1d(4096, eps=1e-05, momentum=0.1, affine=True)
(20): ReLU(inplace=True)
(21): Linear(in_features=4096, out_features=2048, bias=False)
(22): BatchNorm1d(2048, eps=1e-05, momentum=0.1, affine=True)
(23): ReLU(inplace=True)
)
(classifier): Sequential(
(0): Linear(in_features=2048, out_features=2048, bias=False)
(1): BatchNorm1d(2048, eps=1e-05, momentum=0.1, affine=True)
(2): ReLU(inplace=True)
(3): Dropout(p=0.5, inplace=False)
(4): Linear(in_features=2048, out_features=10, bias=True)
)
)
28