…
requires Prenet and Postnet layers to learn attention and produce sharp harmonics.
A.5 Translating Dimensions
(a) GMM Dimension Translation Altered Pitch Fixed Duration
(b) GMM Dimension Translation Altered Duration Fixed Pitch
Figure 9: (a) shows that by translating one of the dimensions of z we are able to alter the pitch
contour of the sentence while keeping the length fixed. (b) shows that by translation one of the
dimensions of z we are able to alter the length of the sentence while keeping a similar pitch contour.
14
Published as a conference paper at ICLR 2021
A.6 Flowtron and Tacotron S ummary View
Flowtron(
(speaker_embedding): Embedding(3, 128)
(embedding): Embedding(185, 512)
(flows): ModuleList(
(0): AR_Step(
(conv): Conv1d(1024, 160, kernel_size=(1,), stride=(1,))
(lstm): LSTM(1664, 1024, num_layers=2)
(attention_lstm): LSTM(80, 1024)
(attention_layer): Attention(
(softmax): Softmax(dim=2)
(query): LinearNorm(
(linear_layer): Linear(in_features=1024, out_features=640, bias=False)
)
(key): LinearNorm(
(linear_layer): Linear(in_features=640, out_features=640, bias=False)
)
(value): LinearNorm(
(linear_layer): Linear(in_features=640, out_features=640, bias=False)
)
(v): LinearNorm(
(linear_layer): Linear(in_features=640, out_features=1, bias=False)
)
)
(dense_layer): DenseLayer(
(layers): ModuleList(
(0): LinearNorm(
(linear_layer): Linear(in_features=1024, out_features=1024, bias=True)
)
(1): LinearNorm(
(linear_layer): Linear(in_features=1024, out_features=1024, bias=True)
)
)
)
)
(1): AR_Back_Step(
(ar_step): AR_Step(
(conv): Conv1d(1024, 160, kernel_size=(1,), stride=(1,))
(lstm): LSTM(1664, 1024, num_layers=2)
(attention_lstm): LSTM(80, 1024)
(attention_layer): Attention(
(softmax): Softmax(dim=2)
(query): LinearNorm(
(linear_layer): Linear(in_features=1024, out_features=640, bias=False)
)
(key): LinearNorm(
(linear_layer): Linear(in_features=640, out_features=640, bias=False)
)
(value): LinearNorm(
(linear_layer): Linear(in_features=640, out_features=640, bias=False)
)
(v): LinearNorm(
(linear_layer): Linear(in_features=640, out_features=1, bias=False)
)
)
(dense_layer): DenseLayer(
(layers): ModuleList(
(0): LinearNorm(
(linear_layer): Linear(in_features=1024, out_features=1024, bias=True)
)
(1): LinearNorm(
(linear_layer): Linear(in_features=1024, out_features=1024, bias=True)
)
)
)
(gate_layer): LinearNorm(
(linear_layer): Linear(in_features=1664, out_features=1, bias=True)
)
)
)
)
(encoder): Encoder(
(convolutions): ModuleList(
(0): Sequential(
(0): ConvNorm(
(conv): Conv1d(512, 512, kernel_size=(5,), stride=(1,), padding=(2,))
)
(1): InstanceNorm1d(512, eps=1e-05, momentum=0.1, affine=True, track_running_stats=False)
)
15
Published as a conference paper at ICLR 2021
(1): Sequential(
(0): ConvNorm(
(conv): Conv1d(512, 512, kernel_size=(5,), stride=(1,), padding=(2,))
)
(1): InstanceNorm1d(512, eps=1e-05, momentum=0.1, affine=True, track_running_stats=False)
)
(2): Sequential(
(0): ConvNorm(
(conv): Conv1d(512, 512, kernel_size=(5,), stride=(1,), padding=(2,))
)
(1): InstanceNorm1d(512, eps=1e-05, momentum=0.1, affine=True, track_running_stats=False)
)
)
(lstm): LSTM(512, 256, batch_first=True, bidirectional=True)
)
)
Tacotron2(
(embedding): Embedding(185, 512)
(encoder): Encoder(
(convolutions): ModuleList(
(0): Sequential(
(0): ConvNorm(
(conv): Conv1d(512,
)
(1): BatchNorm1d(512,
)
(1): Sequential(
(0): ConvNorm(
(conv): Conv1d(512,
)
(1): BatchNorm1d(512,
)
(2): Sequential(
(0): ConvNorm(
(conv): Conv1d(512,
)
(1): BatchNorm1d(512,
512, kernel_size=(5,), stride=(1,), padding=(2,))
eps=1e-05, momentum=0.1, affine=True, track_running_stats=True)
512, kernel_size=(5,), stride=(1,), padding=(2,))
eps=1e-05, momentum=0.1, affine=True, track_running_stats=True)
512, kernel_size=(5,), stride=(1,), padding=(2,))
eps=1e-05, momentum=0.1, affine=True, track_running_stats=True)
)
)
(lstm): LSTM(512, 256, batch_first=True, bidirectional=True)
)
(decoder): Decoder(
(prenet): Prenet(
(layers): ModuleList(
(0): LinearNorm(
(linear_layer): Linear(in_features=80, out_features=256, bias=False)
)
(1): LinearNorm(
(linear_layer): Linear(in_features=256, out_features=256, bias=False)
)
)
)
(attention_rnn): LSTMCell(896, 1024)
(attention_layer): Attention(
(query_layer): LinearNorm(
(linear_layer): Linear(in_features=1024, out_features=128, bias=False)
)
(memory_layer): LinearNorm(
(linear_layer): Linear(in_features=640, out_features=128, bias=False)
)
(v): LinearNorm(
(linear_layer): Linear(in_features=128, out_features=1, bias=False)
)
(location_layer): LocationLayer(
(location_conv): ConvNorm(
(conv): Conv1d(2, 32, kernel_size=(31,), stride=(1,), padding=(15,), bias=False)
)
(location_dense): LinearNorm(
(linear_layer): Linear(in_features=32, out_features=128, bias=False)
)
)
)
(decoder_rnn): LSTMCell(1664, 1024, bias=1)
(linear_projection): LinearNorm(
(linear_layer): Linear(in_features=1664, out_features=80, bias=True)
)
(gate_layer): LinearNorm(
(linear_layer): Linear(in_features=1664, out_features=1, bias=True)
)
16
Published as a conference paper at ICLR 2021
)
(postnet): Postnet(
(convolutions): ModuleList(
(0): Sequential(
(0): ConvNorm(
(conv): Conv1d(80,
)
512, kernel_size=(5,), stride=(1,), padding=(2,))
(1): BatchNorm1d(512,
)
(1): Sequential(
(0): ConvNorm(
(conv): Conv1d(512,
)
(1): BatchNorm1d(512,
)
(2): Sequential(
(0): ConvNorm(
(conv): Conv1d(512,
)
(1): BatchNorm1d(512,
)
(3): Sequential(
(0): ConvNorm(
(conv): Conv1d(512,
)
(1): BatchNorm1d(512,
)
(4): Sequential(
(0): ConvNorm(
(conv): Conv1d(512,
)
eps=1e-05, momentum=0.1, affine=wTrue, track_running_stats=True)
512, kernel_size=(5,), stride=(1,), padding=(2,))
eps=1e-05, momentum=0.1, affine=True, track_running_stats=True)
512, kernel_size=(5,), stride=(1,), padding=(2,))
eps=1e-05, momentum=0.1, affine=True, track_running_stats=True)
512, kernel_size=(5,), stride=(1,), padding=(2,))
eps=1e-05, momentum=0.1, affine=True, track_running_stats=True)
80, kernel_size=(5,), stride=(1,), padding=(2,))
)
(1): BatchNorm1d(80, eps=1e-05, momentum=0.1, affine=True, track_running_stats=True)
)
)
)
(speaker_embedding): Embedding(3, 128)
17