…
Figure 10:	Bad GAN producesWe provide an additional experiment clearly showing the case samples inside the torus holewhere IMD is superior to its main competitors, FID and KID. (red). FID and KID cannot detectWe train two vanilla GANs on the points of a 3D torus. The bad such behaviour.
Figure 11: FID and KID are not able to capture language affinity from unaligned word2vecembeddings.
Figure 12: Variance of the trace estimate.
Figure 13: CIFAR-10 graph colored withtrue class labels.
Figure 14: MNIST samples (left: WGAN, right: WGAN-GP).⅜t AiA*n naFigure 16: CIFAR-10 samples (left: WGAN, right: WGAN-GP)Figure 15: FashionMNIST samples (left: WGAN, right: WGAN-GP)Figure 17: CelebA samples (left: WGAN, right: WGAN-GP)17Published as a conference paper at ICLR 2020MNIST WGANCOnvGenerator((latent_to_features): Sequential((0): Linear(in_features=100, out_features=512, bias=True)(1): ReLU())(features_to_image): Sequential((0): ConvTranspose2d(128, 64, kernel_size=(4, 4),stride=(2, 2), padding=(1, 1))(1): ReLU()(2): BatchNorm2d(64, eps=1e-05, momentum=0.1, affine=True)(3): ConvTranspose2d(64, 32, kernel_size=(4, 4),stride=(2, 2), padding=(1, 1))
Figure 16: CIFAR-10 samples (left: WGAN, right: WGAN-GP)Figure 15: FashionMNIST samples (left: WGAN, right: WGAN-GP)Figure 17: CelebA samples (left: WGAN, right: WGAN-GP)17Published as a conference paper at ICLR 2020MNIST WGANCOnvGenerator((latent_to_features): Sequential((0): Linear(in_features=100, out_features=512, bias=True)(1): ReLU())(features_to_image): Sequential((0): ConvTranspose2d(128, 64, kernel_size=(4, 4),stride=(2, 2), padding=(1, 1))(1): ReLU()(2): BatchNorm2d(64, eps=1e-05, momentum=0.1, affine=True)(3): ConvTranspose2d(64, 32, kernel_size=(4, 4),stride=(2, 2), padding=(1, 1))(4): ReLU()(5): BatchNorm2d(32, eps=1e-05, momentum=0.1, affine=True)
Figure 15: FashionMNIST samples (left: WGAN, right: WGAN-GP)Figure 17: CelebA samples (left: WGAN, right: WGAN-GP)17Published as a conference paper at ICLR 2020MNIST WGANCOnvGenerator((latent_to_features): Sequential((0): Linear(in_features=100, out_features=512, bias=True)(1): ReLU())(features_to_image): Sequential((0): ConvTranspose2d(128, 64, kernel_size=(4, 4),stride=(2, 2), padding=(1, 1))(1): ReLU()(2): BatchNorm2d(64, eps=1e-05, momentum=0.1, affine=True)(3): ConvTranspose2d(64, 32, kernel_size=(4, 4),stride=(2, 2), padding=(1, 1))(4): ReLU()(5): BatchNorm2d(32, eps=1e-05, momentum=0.1, affine=True)(6): ConvTranspose2d(32, 16, kernel_size=(4, 4),
Figure 17: CelebA samples (left: WGAN, right: WGAN-GP)17Published as a conference paper at ICLR 2020MNIST WGANCOnvGenerator((latent_to_features): Sequential((0): Linear(in_features=100, out_features=512, bias=True)(1): ReLU())(features_to_image): Sequential((0): ConvTranspose2d(128, 64, kernel_size=(4, 4),stride=(2, 2), padding=(1, 1))(1): ReLU()(2): BatchNorm2d(64, eps=1e-05, momentum=0.1, affine=True)(3): ConvTranspose2d(64, 32, kernel_size=(4, 4),stride=(2, 2), padding=(1, 1))(4): ReLU()(5): BatchNorm2d(32, eps=1e-05, momentum=0.1, affine=True)(6): ConvTranspose2d(32, 16, kernel_size=(4, 4),stride=(2, 2), padding=(1, 1))
